tiny_char_rnn.pt (torch, 330655 bytes, 7 tensors)

embed.weight f4 [38, 64]
0	0xbf3fd333	-0.7493164
1	0x3f87821a	1.0586579
2	0x3e3f499c	0.18680423
3	0x3f8cd8f8	1.1003714
4	0xbda4b191	-0.080416806
5	0x3ea62bd4	0.32455313
6	0x3ebd34fd	0.3695449
7	0x3e00667c	0.12539095
8	0xbf3f6743	-0.7476694
9	0x3fe25c1e	1.7684362
10	0xbe114833	-0.14187698
11	0x3ea0c959	0.31403616
12	0xbf4247aa	-0.758906
13	0xbf41e768	-0.7574372
14	0xbe89dce1	-0.2692633
15	0x3d629ac2	0.05532337
16	0x3e045a03	0.12924962
17	0x3efe3ea5	0.4965717
18	0xbd49bc87	-0.04925206
19	0x3f2bf538	0.6717105
20	0xbf5f9c47	-0.87347835
21	0xbfd96b56	-1.6985881
22	0xbf0d2975	-0.55141383
23	0x3fabdd7f	1.342697
24	0x3fb6328b	1.4234174
25	0x3e550b6e	0.20805141
26	0xbfea3e51	-1.8300267
27	0xbfc7e0e6	-1.5615509
28	0xbfc61ebc	-1.5478129
29	0xbf634cb7	-0.8878893
30	0xbf5436ad	-0.8289593
31	0xbeecd798	-0.46258235
32	0x3e1289d1	0.14310385
33	0x3eb0ac4b	0.3450645
34	0xbd599b79	-0.053126786
35	0xbf651ad5	-0.8949407
36	0x3f1662e4	0.58744645
37	0x3f8a0e17	1.078555
38	0x3ff7c2f8	1.9356375
39	0xbfbb7f8d	-1.46483
40	0xbfad397a	-1.3533165
41	0xc02741cf	-2.6133916
42	0xbe056a49	-0.13028826
43	0x3fd16332	1.6358397
44	0x3f86f527	1.0543565
45	0x3ff2d246	1.897042
46	0xbe8905e7	-0.26762316
47	0xbf9585b7	-1.1681432
48	0x3f8174c5	1.011376
49	0xbf6027ab	-0.8756053
50	0x3f555903	0.83338946
51	0x3fa70734	1.3049073
52	0x3d9c1339	0.07620854
53	0xbd88f80d	-0.06687937
54	0xbf305168	-0.68874216
55	0x3c86f0c7	0.016472233
56	0x3e38dcaf	0.18052934
57	0xbe7bf4a2	-0.24605039
58	0x3f67df17	0.90574783
59	0x3fad426b	1.3535894
60	0x3ebdb570	0.37052488
61	0xbf13364e	-0.5750474
62	0x3ced7e45	0.028990874
63	0x3f8835d7	1.0641431
64	0x3f333093	0.69995993
65	0xc0075990	-2.1148415
66	0xbf303578	-0.68831587
67	0xbf00172d	-0.50035363
68	0xbf664941	-0.89955527
69	0x3fa4e422	1.2882121
70	0xbe2828b3	-0.16421776
71	0xbee97eec	-0.45604646
72	0xc014b583	-2.3235786
73	0x3e709571	0.23494507
74	0xbd86d68b	-0.065838896
75	0x3ff76a85	1.9329382
76	0xbf20768c	-0.6268089
77	0x3fa743d7	1.3067578
78	0x3eccf009	0.40026882
79	0x3ddd9c38	0.10820812
80	0x3f3f6883	0.7476885
81	0xbf8c1e1b	-1.0946687
82	0x3faf0919	1.3674651
83	0x400a69cf	2.162708
84	0xbed11a33	-0.408403
85	0x3edbf16e	0.42957634
86	0x3e739361	0.2378669
87	0x3f941674	1.1569352
88	0x3e3a6c50	0.1820538
89	0xbfb37c9f	-1.4022406
90	0xbf31c1a1	-0.6943608
91	0x3fd27d7d	1.6444546
92	0xc00ef7e9	-2.2338812
93	0xbdd9e73c	-0.106398076
94	0xbe93c748	-0.28862977
95	0xbf850f4c	-1.0395293
96	0xbe249123	-0.1607099
97	0x3f1919d2	0.59805024
98	0x3f8ea378	1.1143637
99	0x3f2a0070	0.6640692
100	0xbf086190	-0.5327387
101	0x3ff85d8f	1.9403552
102	0x3f3f2c87	0.7467732
103	0xbed754e7	-0.42056963
104	0x3fb343ee	1.4005105
105	0xbf00af35	-0.50267345
106	0xbf4f2a01	-0.8092347
107	0x3f2e5d03	0.68110675
108	0x3d4101ab	0.04712073
109	0xbdeade2a	-0.11468156
110	0x3f1c358b	0.610192
111	0xbfc3d6ba	-1.5299904
112	0xbffdd69b	-1.9831117
113	0xbff4c887	-1.9123696
114	0xbe75b795	-0.23995812
115	0xbf7f4a28	-0.9972253
116	0x3dbcea15	0.09224335
117	0x3fa95d9f	1.3231696
118	0x3fd245c3	1.642754
119	0x3f1c99bc	0.6117208
120	0x3e39bc4b	0.18138234
121	0x3f62cf40	0.8859749
122	0xbf5ad59a	-0.8548218
123	0xc00a894f	-2.1646307
124	0x4009cfae	2.1533008
125	0x3e1f6ded	0.15569277
126	0xbf441f91	-0.76610667
127	0x3fd0cd84	1.6312718
128	0x3e3f5583	0.18684964
129	0xbf990a70	-1.195631
130	0x3f74dfd4	0.95654035
131	0xbf80ec9b	-1.0072206
132	0x3f16309f	0.5866794
133	0xbf1e9f16	-0.61961496
134	0x3e10ce3e	0.14141175
135	0xbf21883e	-0.63098514
136	0x3f920a8f	1.1409472
137	0x4015633a	2.3341813
138	0x3e59829f	0.21241234
139	0xbdaa8834	-0.0832676
140	0xbee1abd5	-0.4407641
141	0xbe887745	-0.26653495
142	0x3e6907f8	0.22756946
143	0x3f9bc886	1.217057
144	0x3fd2f417	1.648074
145	0xbe9cf2a9	-0.30653885
146	0xbe3deb88	-0.1854688
147	0xbf6a5f1c	-0.91551375
148	0xbe448cc4	-0.19194323
149	0xbf89f314	-1.0777307
150	0x3e9a781d	0.30169764
151	0xbea7d959	-0.3278301
152	0xbebdda87	-0.37080786
153	0xbf6ccd9f	-0.9250125
154	0xbf72991d	-0.9476488
155	0x3eaaeeb5	0.33385244
156	0x3f40cf86	0.75316656
157	0xbffc7c60	-1.9725456
158	0xbe8c20af	-0.27368686
159	0x3f87f065	1.0620238
160	0x3e8b8e15	0.27256837
161	0x3f5a31d3	0.85232276
162	0xbf9f1dbb	-1.2430948
163	0xbfa08731	-1.2541257
164	0xbf29caf7	-0.66325325
165	0xbfc0c33c	-1.5059581
166	0x3e98d8a1	0.29852775
167	0xbb360540	-0.0027774125
168	0x3f2ea752	0.6822406
169	0xbfb0e36c	-1.3819404
170	0x3f78f089	0.9724203
171	0x3f9a331b	1.2046846
172	0x3ee14777	0.43999836
173	0xbe930cfa	-0.28720838
174	0x3d98daa6	0.07463579
175	0x3eb55191	0.35413793
176	0xbe44b366	-0.1920906
177	0x3e2a277c	0.16616625
178	0xbfa226b7	-1.2668065
179	0xbf8b3a15	-1.08771
180	0x3fa077f9	1.2536613
181	0xbfa6fa30	-1.3045101
182	0x3e7768cc	0.2416107
183	0x3ba11b8e	0.004916615
184	0xbd190c43	-0.03736521
185	0xbf34baad	-0.70597345
186	0xbe19194c	-0.14951056
187	0xbe32a161	-0.17444374
188	0xbfda6a68	-1.7063723
189	0xbf6d583d	-0.92712766
190	0xbfa942f0	-1.3223553
191	0xbfb799eb	-1.4343847
192	0x40037578	2.0540447
193	0xbe31f093	-0.17376928
194	0xbfc05700	-1.502655
195	0x40129873	2.2905548
196	0x3e9d982c	0.3078016
197	0xbec15289	-0.37758282
198	0xbf062a65	-0.5240844
199	0xbf14e9d6	-0.58169305
200	0xc001a86d	-2.025905
201	0x3fded016	1.7407253
202	0xbf5eaca5	-0.86982185
203	0xbf0a9bf0	-0.5414419
204	0x3f8fc2fd	1.1231381
205	0xbc2daeec	-0.010600787
206	0xbf518419	-0.8184219
207	0x3f10a7fe	0.56506336
208	0xbe81b9f7	-0.25337192
209	0xbf3421da	-0.70364153
210	0xbf942ef0	-1.1576824
211	0x3e163769	0.14669575
212	0xbf38ed27	-0.72236866
213	0x3e729dc8	0.23693001
214	0x3fb97e59	1.4491683
215	0xbf1b4191	-0.6064692
216	0x3ff95ff5	1.9482409
217	0xbf45a668	-0.7720704
218	0xbd8d0047	-0.068848185
219	0xbf5820bc	-0.8442495
220	0x3e150e58	0.14556253
221	0x3fd673fc	1.6754146
222	0x3ef39607	0.475754
223	0xbe70e48a	-0.2352468
224	0xbf695107	-0.9113926
225	0xbe75f252	-0.24018219
226	0x3fa5e546	1.2960594
227	0x3f3a2c4c	0.7272384
228	0xbf1eebfd	-0.6207884
229	0xbf812611	-1.0089742
230	0x3f2fa05e	0.68604076
231	0x3f25ba23	0.6473715
232	0x3db81b8e	0.08989631
233	0x3f549a02	0.830475
234	0x3e8fa201	0.28053287
235	0x3f96e2f7	1.1788014
236	0xbeb84992	-0.3599363
237	0x3fb3a91e	1.4035985
238	0xbef4787d	-0.47748175
239	0x3f5df1e4	0.8669722
240	0x3e491e12	0.19640377
241	0xbf80f57d	-1.0074917
242	0x3ead3eff	0.33837125
243	0xc01aeee6	-2.4208312
244	0xbce2fb50	-0.027707726
245	0xc012452c	-2.285472
246	0xbe750e94	-0.23931342
247	0x3e307017	0.17230259
248	0x3f5e8502	0.86921704
249	0xbec2c5d1	-0.38041547
250	0xbf66b2ef	-0.9011678
251	0x3f9263c7	1.14367
252	0xbf98756c	-1.1910834
253	0xbd3db32a	-0.046313442
254	0x3fcc0449	1.5938808
255	0xbb687a36	-0.0035473234

rnn.weight_ih_l0 f4 [384, 64]
0	0x3b320819	0.002716547
1	0xbe550646	-0.20803174
2	0x3e1d2ea1	0.15349819
3	0xbd397a90	-0.0452829
4	0x3c5c2461	0.013436408
5	0x3d307a85	0.043085594
6	0x3d9928a3	0.07478454
7	0xbdbebd85	-0.09313492
8	0x3dd1d2d2	0.10245289
9	0xbd9b7b1b	-0.0759184
10	0xbcfe0719	-0.031009244
11	0x3d02fe95	0.03198107
12	0x3e435388	0.19074833
13	0x3d3d7257	0.04625162
14	0x3e04a9c3	0.12955384
15	0x3b9362fe	0.004497885
16	0x3e23d154	0.15997821
17	0xbd98d049	-0.07461602
18	0xbd3dcd4b	-0.04633836
19	0xbdb977ae	-0.0905603
20	0xbc1b0fed	-0.009464246
21	0x3cf9594d	0.03043809
22	0x3dae2463	0.08503034
23	0xbd140b00	-0.036143303
24	0x3c972e76	0.018454771
25	0xbdfc211f	-0.12311005
26	0x3cee01ba	0.029053558
27	0x3ba72400	0.005100727
28	0x3db44f98	0.08804244
29	0xbdce26f6	-0.10066025
30	0xbcfb8c01	-0.030706408
31	0xbc42873d	-0.011873064
32	0xbbbf1769	-0.005831648
33	0xbd8eb685	-0.069684066
34	0xbc417cf8	-0.01180958
35	0xbd16ec93	-0.03684671
36	0xbda1fde1	-0.07909752
37	0xbd1b80ee	-0.037964754
38	0xbd38979a	-0.045066454
39	0x3de0994f	0.10966741
40	0x3de88d8a	0.113551214
41	0x3d5910d1	0.052994553
42	0x3d6f185b	0.058372837
43	0x3dadb8a0	0.0848248
44	0xbd85ac1c	-0.06526968
45	0xbc642d84	-0.013926867
46	0x3da93e2c	0.082638115
47	0x3cd72edb	0.02626746
48	0xbddb3d1c	-0.10705015
49	0xbccc5da2	-0.024946991
50	0xbda4a312	-0.08038916
51	0xbe2e43f9	-0.17018117
52	0x3e0fd092	0.14044407
53	0x3d90b305	0.07065395
54	0xbcea95ba	-0.028635848
55	0xbd2c004b	-0.041992467
56	0x3c41d64a	0.011830876
57	0xbd736408	-0.05942157
58	0xbd034b98	-0.032054514
59	0xbdd578d8	-0.1042344
60	0x3d3f1c18	0.04665765
61	0x39aceb44	0.00032981683
62	0xbd5e084f	-0.054207142
63	0x3c305584	0.010762576
64	0xbdf875aa	-0.12131818
65	0x3c7c7d51	0.015410737
66	0xbdeeef62	-0.116667524
67	0x3dc90924	0.098161966
68	0x3e0dc341	0.13844015
69	0xbde3e616	-0.1112787
70	0x3e28b85a	0.16476575
71	0xbdcaa6f2	-0.098951235
72	0xbd05263c	-0.032507166
73	0x3dae773a	0.085188344
74	0x3c1fba06	0.009748941
75	0xbda19e60	-0.07891536
76	0xbe069d62	-0.13145974
77	0xba736f70	-0.000928632
78	0xbc577316	-0.013149997
79	0x3cf827f8	0.030292496
80	0xbde39f86	-0.11114411
81	0x3dbd1251	0.09232009
82	0xbd350c67	-0.04420128
83	0x3d57b5ab	0.052663486
84	0x3c5e0bdd	0.013552633
85	0x3d8d4d69	0.068995304
86	0xbdac0e22	-0.08401133
87	0xbd597a3c	-0.053095087
88	0x3dbd0946	0.092302844
89	0x3db769e0	0.08955741
90	0x3e1861e7	0.14881097
91	0x3d8304ae	0.06397377
92	0x3c833564	0.01601667
93	0xbd8c63a0	-0.068549395
94	0x3e11e7c9	0.14248575
95	0xbcfdc4cc	-0.03097763
96	0xbe07b0a3	-0.13250975
97	0x3dbcacc8	0.09212643
98	0xbdf5193f	-0.11967706
99	0xbe057b9b	-0.13035433
100	0xbd9d24d7	-0.07673042
101	0xbbf2943d	-0.0074029253
102	0x3dbeda99	0.09319038
103	0xbde59e45	-0.11211828
104	0xbdf8350e	-0.121194944
105	0xbde0a333	-0.10968628
106	0x3db3bc65	0.08776168
107	0xbde41d1f	-0.11138367
108	0xbe0978de	-0.13425013
109	0x3e1c1c1b	0.15245096
110	0x3d2f1a3e	0.042749636
111	0x3c744072	0.014907943
112	0xbdc34fc3	-0.09536698
113	0x3c052e78	0.008128755
114	0xbd9dcb39	-0.07704777
115	0xbd937cc9	-0.07201535
116	0xbd341dd4	-0.04397376
117	0x3d24a383	0.040195
118	0xbd930165	-0.07178
119	0x3d009fe6	0.03140249
120	0x3cf25092	0.029579435
121	0x3e2d4fb3	0.16924934
122	0x3de1e62b	0.11030229
123	0xbd39acbf	-0.04533076
124	0xbe149c1d	-0.14512677
125	0x3ca3ef91	0.020011695
126	0xbd0ac2da	-0.03387723
127	0xbdcc6dfd	-0.09981916
128	0xbd7814c6	-0.060566686
129	0xbd9ab2a8	-0.07553607
130	0x3d64d511	0.05586726
131	0xbbe60f95	-0.0070209005
132	0x3d4a1be4	0.049343005
133	0xbc439ed5	-0.011939724
134	0x3b1524a6	0.002275744
135	0xbdb004d9	-0.085946746
136	0xbc13c63b	-0.00901943
137	0xbe1eb0ca	-0.15497127
138	0x3cc4ae12	0.024008784
139	0xbd45169b	-0.04811726
140	0x3df91f05	0.1216412
141	0x3e0f89fb	0.14017479
142	0x3e3e357f	0.18575095
143	0x3c8c5c5b	0.017133882
144	0x3da4b910	0.0804311
145	0xbe274ea6	-0.16338596
146	0x3dca588c	0.0988017
147	0xbd5c4352	-0.05377514
148	0x3d9213f7	0.07132714
149	0xbc2ce5ee	-0.010552866
150	0x3d681135	0.056657035
151	0xbdafa5b0	-0.08576524
152	0x3cc514d6	0.024057787
153	0xbd5811a8	-0.052751213
154	0x3df83813	0.1212007
155	0x3d9a7a02	0.075428024
156	0x3caf8f14	0.02143053
157	0xbe0167df	-0.1263728
158	0xbbdab6bc	-0.0066746157
159	0x3d83f650	0.06443465
160	0xbd462476	-0.048374616
161	0x3d7fa4e4	0.06241311
162	0x3c12d82f	0.008962675
163	0x3a969146	0.0011487387
164	0x3c944dfe	0.018103596
165	0xbbca8731	-0.006180667
166	0xbcbca162	-0.023026172
167	0xbda6001f	-0.08105492
168	0xbd6e372a	-0.058158077
169	0x3d73d3fa	0.05952833
170	0x3d8980ca	0.06714018
171	0xbdf6946c	-0.12040028
172	0xbd4d4ef8	-0.05012414
173	0xbd888650	-0.06666243
174	0x3dbeb08c	0.093110174
175	0x3de8dcf1	0.11370266
176	0x3e12fab4	0.14353448
177	0x3e1ae095	0.15124734
178	0xbd4a0dca	-0.049329557
179	0xbbb3b943	-0.0054847314
180	0x3d809b4d	0.06279621
181	0xbc9e7a42	-0.019345406
182	0xbc9cc4a7	-0.01913674
183	0xbd6c9634	-0.057760432
184	0x3ae652b4	0.0017572255
185	0xbd5e05dc	-0.054204807
186	0xba92a4a5	-0.0011187984
187	0xbe2d802c	-0.16943425
188	0xbd53a6ba	-0.051672675
189	0x3cc9582b	0.024578175
190	0xbd19a239	-0.037508223
191	0x3c94b22c	0.018151365
192	0x3e5669ff	0.20938872
193	0xbe663d6f	-0.22484373
194	0x3e0b83fe	0.1362457
195	0x3cb83340	0.022485375
196	0x3e2d6fe0	0.16937208
197	0x3e06a865	0.13150175
198	0xbe306593	-0.17226247
199	0xbe37c60f	-0.17946647
200	0x3e276a19	0.16349067
201	0x3c769603	0.015050414
202	0xbe17d655	-0.14827855
203	0xbd3456b0	-0.044027984
204	0x3d1d4324	0.03839411
205	0xbdb4c113	-0.088258885
206	0x3e087cc7	0.13328849
207	0x3ba76d83	0.0051094904
208	0x3d65839e	0.056033723
209	0xbda7504d	-0.08169613
210	0xbdf6932e	-0.12039791
211	0x3e084fbb	0.13311665
212	0xbde4e183	-0.111758254
213	0xbd0e959e	-0.034810655
214	0xbdb5ef84	-0.088835746
215	0x3da7a4fd	0.08185766
216	0x3cff0b67	0.031133367
217	0xbe2fd5f6	-0.17171463
218	0x3e508581	0.20363428
219	0x3e08d52a	0.13362566
220	0x3d021007	0.031753566
221	0x3c3056d3	0.010762888
222	0x3e3fd66e	0.18734142
223	0xbe4805dd	-0.19533487
224	0xbd860dce	-0.06545602
225	0xbd917b2b	-0.071035706
226	0x3d3cb9e8	0.04607573
227	0xbd9d3f7c	-0.07678124
228	0xbdea00a0	-0.114259005
229	0x3e056aa8	0.13028967
230	0xbd2e8dd5	-0.04261573
231	0x3d3c5d5c	0.045987472
232	0x3e33eeda	0.17571583
233	0x3d719581	0.05898047
234	0xbe033284	-0.12812239
235	0xbdb7edb3	-0.089808844
236	0x3e0e26f9	0.13882054
237	0x3e0ed0ec	0.13946885
238	0x3dccc223	0.09997966
239	0x3e2892ce	0.16462252
240	0xbc3e760a	-0.011624822
241	0xbe01e87c	-0.12686342
242	0xbe1a0355	-0.15040334
243	0xbd960243	-0.0732465
244	0x3d1422c0	0.036165953
245	0x3d7029b6	0.05863353
246	0x3e0998f3	0.13437252
247	0x3c9a575e	0.018840488
248	0xbe23809b	-0.15967028
249	0x3d4e05be	0.050298445
250	0xbd0f5a48	-0.03499821
251	0xbdad359c	-0.08457491
252	0x3e0c1593	0.13680105
253	0xbe00017f	-0.1250057
254	0xbdb19b9c	-0.08672258
255	0x3db69604	0.08915332

rnn.weight_hh_l0 f4 [384, 128]
0	0xbc867ea0	-0.016417801
1	0xbe0d4085	-0.13794143
2	0xbe148427	-0.14503537
3	0x3da1453d	0.07874534
4	0xbd7583be	-0.059940092
5	0x3e34ac45	0.1764384
6	0x3d134b96	0.035960756
7	0xbbbed695	-0.00582392
8	0xbdd8dd41	-0.10589076
9	0xbc6b068f	-0.014344825
10	0x3cbfdc56	0.023420494
11	0x3cb16ff8	0.021659836
12	0xbe2ff6db	-0.17184012
13	0x3cf9c5dd	0.030489856
14	0x3d3b9b9f	0.04580271
15	0x3dcc541a	0.099769786
16	0xbddd1cd1	-0.10796512
17	0xbddfddaf	-0.10930955
18	0x3d2dc487	0.04242375
19	0xbe394166	-0.18091354
20	0x3d9fc4b7	0.07801192
21	0xbe61740b	-0.22016923
22	0xbc4e8176	-0.012604108
23	0xbd500623	-0.050787102
24	0x3e24e6e0	0.16103697
25	0x3d9928b6	0.07478468
26	0x3e0b19b1	0.13584019
27	0x3daa8be6	0.08327465
28	0xbbd0ed51	-0.0063759466
29	0x3d90ff0f	0.070798986
30	0xbc9db065	-0.01924915
31	0xbc851fb5	-0.01625047
32	0x3e041921	0.12900211
33	0x3d691dbc	0.056913123
34	0x3d2ad693	0.04170854
35	0xbd8e9b09	-0.06963164
36	0x3e3adf1e	0.18249175
37	0xbd4ea3b6	-0.050449096
38	0x3d56cab2	0.0524394
39	0x3e1ff355	0.15620168
40	0x3d13a099	0.03604183
41	0x3c3c110e	0.0114786755
42	0xbdc6fcb1	-0.09716166
43	0x3d7a1828	0.061058193
44	0x3b7712d7	0.0037700438
45	0xbdb647ea	-0.08900435
46	0xbc38391c	-0.011244085
47	0xbd438efc	-0.047743782
48	0xbdf058ed	-0.11735711
49	0x3d3f8d5d	0.046765674
50	0x3da20880	0.079117775
51	0x3d8a0189	0.06738574
52	0x3d04ede0	0.032453418
53	0x3dbf6c98	0.093468845
54	0xbd077c3f	-0.033077475
55	0xbd151b4a	-0.036402978
56	0xbd41af5a	-0.04728637
57	0xbda121f4	-0.07867804
58	0xbe298049	-0.16552843
59	0xbd1eeb6c	-0.038798735
60	0x3d14890c	0.03626351
61	0x3d456dd3	0.04820044
62	0xbb804564	-0.003914522
63	0xbcd743d5	-0.026277462
64	0x3e6ea48a	0.23304954
65	0xbdad9dba	-0.084773496
66	0xbce65fbb	-0.02812182
67	0x3cb8a815	0.022541085
68	0x3c92c11f	0.017914353
69	0xbd85bbe6	-0.065299794
70	0xbe1c1cb5	-0.15245326
71	0x3cffc9fe	0.031224247
72	0xbdd42ce1	-0.103601225
73	0x3d25e4d7	0.04050144
74	0x3d9b0f72	0.07571305
75	0x3e0b7dad	0.1362216
76	0xbcd3afdf	-0.025840698
77	0x3e024187	0.12720309
78	0xbdd2f01e	-0.10299705
79	0x3e2f2ff1	0.17108132
80	0xbcf81311	-0.03028253
81	0xbaa48de6	-0.0012554496
82	0xbd9494ce	-0.07254945
83	0xbda9e5cf	-0.08295786
84	0xbdac7404	-0.08420566
85	0xbca6e785	-0.020374069
86	0xbe076729	-0.13222946
87	0x3d95ec15	0.0732042
88	0xbdff0721	-0.124525316
89	0x3aed09a0	0.0018084534
90	0x3e3c3ea1	0.18383266
91	0xbe595305	-0.21223076
92	0x3d5258ed	0.051354337
93	0xbe169f92	-0.14709309
94	0x3dbf8bb5	0.09352819
95	0xbd3bc3f4	-0.045841172
96	0xbdbf4809	-0.093399115
97	0x3d018f85	0.03163101
98	0xbdbba1bb	-0.09161707
99	0x3d0190a5	0.031632084
100	0xbcde5842	-0.027141694
101	0xbdf77c07	-0.12084203
102	0xbdd7d6c1	-0.10539008
103	0xbbcd8b00	-0.0062726736
104	0xbd26c4ac	-0.040714905
105	0xbe127fc2	-0.14306548
106	0xbdac4002	-0.08410646
107	0x3d466e30	0.048444927
108	0x3d933d82	0.07189466
109	0xbe376660	-0.17910147
110	0xbd8cc4cd	-0.06873474
111	0x3dd08ec9	0.10183484
112	0x3e081cc3	0.13292222
113	0x3d1240d0	0.03570634
114	0x3e0101b6	0.12598309
115	0xbd3e36f8	-0.04643914
116	0x3b1306a1	0.002243437
117	0x3d738687	0.059454467
118	0x3d32878a	0.04358629
119	0xbb3b4734	-0.0028576376
120	0x3e3047e5	0.17214926
121	0x3d0033cd	0.0312994
122	0x3e2f6bac	0.17130917
123	0xbd154c5c	-0.036449775
124	0x3cb82a7d	0.022481197
125	0xbe2857bd	-0.1643972
126	0x3d1cc8fd	0.038277615
127	0x3de6fc7e	0.11278628
128	0x3bae5fb8	0.005321469
129	0xbe02a7ce	-0.12759325
130	0x3d5cb587	0.053884055
131	0xbd2b2e91	-0.041792456
132	0xbd550731	-0.05200881
133	0xbd641cb5	-0.05569144
134	0xbd1aa0a7	-0.037750866
135	0xbd0e2088	-0.034698993
136	0x3dc8c001	0.09802247
137	0xbb9069f9	-0.004407164
138	0x3d8e2a47	0.069416575
139	0x3ba1faff	0.004943251
140	0x3dc723e2	0.09723641
141	0x3e44a9db	0.1920542
142	0x3e06b22c	0.13153905
143	0x3e03ba5f	0.12864064
144	0xbaf8d2ea	-0.0018983756
145	0x3db71af2	0.08940686
146	0x3e00d191	0.12579943
147	0xbd93f6bb	-0.072247945
148	0xbcde0551	-0.027102144
149	0xbe35b5c4	-0.1774512
150	0x3ccc8ec6	0.024970423
151	0x3d60a1f3	0.054841947
152	0x3da92fde	0.08261083
153	0x3dbefb60	0.0932529
154	0x3de22ba5	0.11043481
155	0x3c3850dc	0.011249747
156	0x3d61aeb7	0.05509826
157	0xbd6c23fa	-0.057651497
158	0xbd91b7cf	-0.07115137
159	0xbddf24ca	-0.10895689
160	0x3d80dedd	0.06292508
161	0x3e3bdb41	0.18345357
162	0x3822c630	3.8808386e-05
163	0xbded7d9f	-0.11596226
164	0x3d3ceaf6	0.046122514
165	0xbd7fdf21	-0.06246865
166	0xbda55aa3	-0.08073928
167	0x3e274070	0.16333175
168	0xbd762439	-0.06009314
169	0xbc218ad7	-0.009859762
170	0xbdb3a186	-0.087710425
171	0x3ce9011e	0.028442916
172	0xbe0e9a6b	-0.13926093
173	0x3c87f2ba	0.016595233
174	0x3c1aa392	0.009438412
175	0xbe26a28e	-0.16272947
176	0xbd1dc5c3	-0.03851868
177	0x3d7c540f	0.061603602
178	0xbd741722	-0.059592374
179	0xbdec8cde	-0.11550306
180	0xbd7f47bb	-0.062324267
181	0xbe2880e0	-0.16455412
182	0xbd467aab	-0.04845683
183	0x3d9131f8	0.07089609
184	0xbbd95502	-0.006632448
185	0xbd3bc6b9	-0.045843814
186	0xbd208423	-0.039188515
187	0x39a442ef	0.00031330387
188	0xbe5bade7	-0.21453057
189	0x3d9b1a5a	0.075733855
190	0xbd1137ca	-0.035453595
191	0x3b590c3d	0.0033118867
192	0x3df5d315	0.12003151
193	0xbcf29b38	-0.02961503
194	0xbc68326b	-0.014172177
195	0x3d4c8a1d	0.049936403
196	0x3b098dee	0.0020989138
197	0xbe0dd018	-0.13848913
198	0x3df9ce0d	0.12197504
199	0x3d9b1254	0.07571855
200	0x3da48720	0.080335855
201	0xbd3b9ad4	-0.045801952
202	0xbe508a99	-0.20365371
203	0x3d322777	0.043494668
204	0xbd70d46f	-0.058796342
205	0xbd0fa7cd	-0.035072137
206	0xbd2f6e6d	-0.04282992
207	0x3c1bfa93	0.009520191
208	0xbe07c0ca	-0.13257137
209	0xbb88f518	-0.004179608
210	0x3c887d2d	0.016661251
211	0xbdcabd4e	-0.09899388
212	0xbd6a1ab9	-0.05715439
213	0xba728eec	-0.00092528644
214	0xbc2cbdce	-0.0105433
215	0xbcc3675d	-0.023852998
216	0xbdb4fafb	-0.08836933
217	0xbdbf4103	-0.09338572
218	0xbcdd5671	-0.027018758
219	0xbc4e6e2e	-0.012599511
220	0x3c223e9a	0.009902621
221	0x3de5084c	0.11183223
222	0xbdbf0b6a	-0.09328349
223	0xbd9ea5f4	-0.07746497
224	0x3daa0d2c	0.083032936
225	0xbde6973e	-0.11259316
226	0x3d0c546b	0.034260195
227	0x3d92e24d	0.0717207
228	0x3c3b37a0	0.011426836
229	0x3d452507	0.048131015
230	0x3d37c2bf	0.04486346
231	0x3dd824a0	0.10553861
232	0xbd9da894	-0.07698169
233	0x3d04766c	0.0323395
234	0xbd347f3a	-0.044066645
235	0x3df67e88	0.12035853
236	0xbde80dc0	-0.113307476
237	0xbd36255f	-0.044469234
238	0x3cd40fba	0.025886405
239	0xbe004362	-0.12525705
240	0xbac55f5d	-0.0015058328
241	0x3dae58e8	0.08513051
242	0x3e11f67b	0.14254181
243	0xbd9ae21f	-0.075626604
244	0x3d2e48ab	0.04254977
245	0xbdc04298	-0.09387702
246	0x3cb81239	0.022469627
247	0x3c5a5fdf	0.0133285215
248	0x3d680a6b	0.05665056
249	0x3c3d0212	0.011536138
250	0xbdd9fa86	-0.10643487
251	0x3cd721a3	0.026261156
252	0xbd6cf7c8	-0.05785349
253	0x3c093411	0.00837423
254	0xbd47145e	-0.048603408
255	0xbe18803b	-0.14892666

rnn.bias_ih_l0 f4 [384]
0	0x3e0e29f0	0.13883185
1	0x3c4bb9c7	0.0124344295
2	0x3e174ac2	0.14774612
3	0x3d47d71c	0.04878913
4	0x3d7ee4c3	0.062229883
5	0x3e14578c	0.14486521
6	0xbd038f7a	-0.03211925
7	0x3ce03e78	0.027373537
8	0x3dbc2813	0.09187331
9	0x3e053f26	0.1301237
10	0xbc7f382f	-0.01557736
11	0x3e0b50af	0.13604997
12	0x3e034f37	0.12823187
13	0x3da4d3f8	0.08048242
14	0x3d0d4c97	0.03449687
15	0x3e3a10ae	0.18170425
16	0x3db52b38	0.08846134
17	0x3e38e0f7	0.18054567
18	0x3db01e0b	0.0859948
19	0x3d755a49	0.059900556
20	0xbbc1935b	-0.0059074587
21	0x3d9cd388	0.07657534
22	0x3df5e0e0	0.12005782
23	0x3e4a750a	0.1977121
24	0x3d348ed6	0.04408153
25	0x3dfdc462	0.12390973
26	0x3e0386fd	0.12844463
27	0x3d05431c	0.032534704
28	0x3da74168	0.08166772
29	0x3d893a07	0.06700521
30	0xbcb37c13	-0.02190975
31	0x3cd02236	0.025406938
32	0x3dd19ee9	0.10235388
33	0x3e348195	0.17627557
34	0x3e03be2e	0.12865517
35	0x3c11087e	0.008852122
36	0x3bfaf143	0.007658155
37	0x3d76aec5	0.060225267
38	0x3e254498	0.16139448
39	0x3e2a9637	0.16658865
40	0x3df0d9b3	0.11760273
41	0x3e0a76f2	0.13521937
42	0x3df0341c	0.11728689
43	0x3cc14a4c	0.023594998
44	0x3d9cca17	0.07655733
45	0xbc9e2072	-0.01930258
46	0x3df1f91c	0.11815092
47	0x3df8e037	0.121521406
48	0x3ca185fe	0.019717213
49	0x3deeac2b	0.11653932
50	0x3d0d4a3f	0.034494635
51	0x3ca4a807	0.020099653
52	0xbd213b69	-0.0393633
53	0x3ce2ae62	0.027671043
54	0x3db63616	0.08897035
55	0x3d64a2f1	0.055819456
56	0x3e0056f4	0.1253317
57	0x3c3e2518	0.0116055235
58	0x3c1c8467	0.009553052
59	0x3d3ed913	0.046593737
60	0x3dfce5cf	0.1234852
61	0x3db97008	0.090545714
62	0x3dd28748	0.10279709
63	0x3d79c2f7	0.06097695
64	0x3c81f88c	0.015865587
65	0x3c125ec8	0.00893373
66	0x3e025d15	0.1273082
67	0x3e1f009b	0.15527575
68	0x3d74d865	0.059776682
69	0x3e1b48e0	0.15164518
70	0x3ccd9ec2	0.025100116
71	0xbca1c5b1	-0.019747587
72	0xbc94ae09	-0.018149393
73	0x3e07c61a	0.13259163
74	0x3d908937	0.07057422
75	0x3dbc1f69	0.091856785
76	0x3e402c12	0.18766811
77	0xbcd2d467	-0.025736047
78	0x3e033de4	0.12816578
79	0x3b5d6a61	0.003378533
80	0x3c9c44f0	0.01907584
81	0x3d402c12	0.04691703
82	0x3dd33635	0.103130735
83	0x3dc6ebe7	0.097129636
84	0x3d4e7afd	0.05041026
85	0xbc3ab53c	-0.011395749
86	0x3dcaa972	0.098956004
87	0x3d43c7b4	0.047797874
88	0x3defcb81	0.11708737
89	0x3e1cffef	0.15332006
90	0x3d808055	0.062744774
91	0x3d1b91ec	0.03798096
92	0xbd2a81fe	-0.041627876
93	0x3dff618d	0.12469778
94	0x3d8ae7c9	0.06782491
95	0x3e2ef764	0.1708656
96	0x3d9753f0	0.07389057
97	0x3deb4372	0.114874735
98	0x3d4a6058	0.049408287
99	0x3c974965	0.018467614
100	0x3dc9a771	0.0984639
101	0x3d0f0d03	0.03492452
102	0x3df648f4	0.120256335
103	0xbc39e337	-0.011345676
104	0x3db42faa	0.08798154
105	0x3dd421d0	0.10358012
106	0x3e1217ad	0.14266844
107	0x3d62aae2	0.055338748
108	0x3de95aa6	0.11394243
109	0x3de2c2e5	0.110723294
110	0x3d85f48e	0.06540786
111	0x3deb5e40	0.11492586
112	0x3e10210d	0.14075108
113	0x3de4860f	0.11158382
114	0x3d8abb86	0.067740485
115	0x3def67b7	0.11689704
116	0x3db2a4d1	0.087228425
117	0x3e0f2303	0.139782
118	0x3c5a1846	0.013311451
119	0x3d56f4f9	0.052479718
120	0x3d25fa9c	0.040522203
121	0x3cb38699	0.021914767
122	0x3de942b4	0.11389676
123	0x3de04430	0.10950506
124	0x3d8a08bc	0.06739947
125	0x3df32a54	0.11873308
126	0x3e23792c	0.15964192
127	0xbc822901	-0.015888693
128	0xbd98a634	-0.07453576
129	0xbdab0873	-0.08351221
130	0xbdbb475a	-0.091444686
131	0xbdb97a0f	-0.09056484
132	0xbe2a25e8	-0.16616023
133	0x3c864cca	0.016394038
134	0xbe577f10	-0.21044564
135	0xbdacd798	-0.08439559
136	0xbdcbf9ee	-0.0995978
137	0xbe323d27	-0.1740614
138	0xbe2fc09c	-0.17163318
139	0xbd4065a0	-0.046971917
140	0xbdabd8e1	-0.08390976
141	0xbe5837c7	-0.21115027
142	0xbdd7ba39	-0.10533566
143	0xbdd3ae38	-0.10335964
144	0xbe1309fc	-0.14359277
145	0xbdc54f24	-0.096342355
146	0xbe3f28c7	-0.18667899
147	0xbdaf6d27	-0.08565741
148	0xbdb0ba7c	-0.08629319
149	0xbe1b3e72	-0.1516054
150	0xbdef5bfe	-0.11687468
151	0xbe2533a7	-0.16132985
152	0xbde9e699	-0.11420936
153	0xbdd52f30	-0.10409391
154	0xbc48cb17	-0.012255452
155	0xbd916768	-0.07099801
156	0xbdc6ef32	-0.09713592
157	0xbe3acfcd	-0.18243332
158	0xbe52e4f0	-0.20595145
159	0xbddc57d7	-0.107589416
160	0xbd974a2d	-0.07387195
161	0xbe264b81	-0.1623974
162	0xbe3fbdba	-0.18724719
163	0xbd91a008	-0.07110602
164	0xbbed97c2	-0.007250757
165	0xbd7dd47d	-0.061970223
166	0xbda76d19	-0.081751056
167	0xbde671d9	-0.112521835
168	0xbe6421ad	-0.22278471
169	0xbd8e6744	-0.0695329
170	0xbe51dd08	-0.20494473
171	0xbdbe434e	-0.09290181
172	0xbd27afb0	-0.040939033
173	0xbdcdc36c	-0.100470394
174	0xbd8d20a4	-0.06890991
175	0xbd7c9b32	-0.061671443
176	0xbe6425b9	-0.22280015
177	0xbe4ab285	-0.19794662
178	0xbe29390a	-0.16525665
179	0xbe59ccc6	-0.21269521
180	0xbdfbb601	-0.12290574
181	0xbe1a4155	-0.15063985
182	0xbe13e92a	-0.14444414
183	0xbdaa9d2d	-0.0833076
184	0xbe661687	-0.22469531
185	0xbe1b0437	-0.15138327
186	0xbe472431	-0.194474
187	0xbda305ac	-0.07960066
188	0xbe418aa3	-0.18900542
189	0xbdb1eea0	-0.08688092
190	0xbdee3023	-0.11630275
191	0xbb838d2b	-0.0040146313
192	0xbe16b4ed	-0.14717455
193	0xbe16cda2	-0.1472688
194	0xbd9f9155	-0.07791392
195	0xbe416575	-0.18886359
196	0xbe36502d	-0.17804022
197	0xbe245413	-0.16047697
198	0xbe2acd68	-0.16679919
199	0xbdf73132	-0.1206993
200	0xbe2fb0f7	-0.1715735
201	0xbe560569	-0.20900501
202	0xbd778463	-0.06042899
203	0xbe260170	-0.16211486
204	0xbe2982a3	-0.1655374
205	0xbdcd3777	-0.10020345
206	0x3b6bdf6f	0.003599133
207	0xbe205241	-0.15656377
208	0xbe0baaf9	-0.1363944
209	0xbe3e6f9f	-0.18597268
210	0xbcaae270	-0.020859927
211	0xbd1c493f	-0.03815579
212	0xbdbf4a9c	-0.093404025
213	0xbddb9f2a	-0.107237175
214	0xbd2a798d	-0.041619826
215	0xbe329cc1	-0.1744261
216	0xbe610359	-0.21973933
217	0xbcce758d	-0.025202537
218	0xbe521aaf	-0.20517991
219	0xbdba69a0	-0.091021776
220	0xbe423a23	-0.1896749
221	0xbdb87257	-0.090061836
222	0xbe4872ac	-0.19574994
223	0xbd8056b1	-0.06266535
224	0xbe018d61	-0.12651588
225	0xbe15ea9a	-0.14640275
226	0xbe2d98d2	-0.16952828
227	0xbc32cce1	-0.010913105
228	0xbd915419	-0.070961185
229	0xbdb360d8	-0.08758706
230	0xbdd845cd	-0.105601884
231	0xbe330bd0	-0.17484975
232	0xbe25264f	-0.16127895
233	0xbe60ad35	-0.21941073
234	0xbd9b9594	-0.07596889
235	0xbe45b877	-0.19308649
236	0xbd379fe3	-0.044830214
237	0xba7ae85c	-0.00095713674
238	0xbe01eeb7	-0.12688719
239	0xbd882e78	-0.06649488
240	0xbe0e0226	-0.13868007
241	0xbdc26088	-0.09491068
242	0xbdf36170	-0.11883819
243	0xbd004267	-0.031313326
244	0xbdcf86d6	-0.1013314
245	0xbe0b7c22	-0.13621572
246	0xbe20d91b	-0.15707819
247	0xbe0b2821	-0.13589527
248	0xbd94c18c	-0.07263479
249	0xbe31c033	-0.17358474
250	0xbe607bc3	-0.21922211
251	0xbdd87b12	-0.10570349
252	0xbd6cefa5	-0.05784573
253	0xbd8faa19	-0.070148654
254	0xbda5f99a	-0.08104248
255	0xbe37f3df	-0.17964123

rnn.bias_hh_l0 f4 [384]
0	0x3d3c9a47	0.046045568
1	0x3dd7def2	0.1054057
2	0x3d8b3b27	0.06798392
3	0x3deddf14	0.116148144
4	0x3dc983e7	0.098396115
5	0x3d8858bf	0.06657552
6	0xbc2a9b18	-0.010412954
7	0x3d9d1e0f	0.07671749
8	0x3c2ae177	0.010429732
9	0x3d585629	0.052816544
10	0x3dc9dd02	0.09856607
11	0x3d238400	0.039920807
12	0x3c01c26d	0.00791989
13	0x3e17524f	0.14777492
14	0x3d496196	0.04916533
15	0x3e17ed84	0.14836699
16	0x3d7fd415	0.062458117
17	0x3dfdfebc	0.12402102
18	0xbba847b4	-0.005135501
19	0x3d6044db	0.054753166
20	0x3d0caeeb	0.034346502
21	0x3e05b6b0	0.13057971
22	0xbd0edf8f	-0.03488117
23	0x3dcff67e	0.101544365
24	0x3e0404de	0.12892482
25	0x3e327ede	0.17431208
26	0x3ce7b9f2	0.028286908
27	0xba479427	-0.0007613324
28	0x3e38f57a	0.18062392
29	0x3d59e408	0.053195983
30	0xbcf3e75e	-0.02977341
31	0x3ddf42a0	0.109013796
32	0x3ddcdf35	0.10784761
33	0x3e31af7b	0.17352097
34	0x3e177f48	0.14794648
35	0x3d8d4cef	0.068994395
36	0x3dbbbe95	0.0916721
37	0x3cb4ee02	0.022086147
38	0x3d9c463c	0.07630584
39	0x3cda45e2	0.02664465
40	0x3e161118	0.14654958
41	0x3e079af9	0.13242711
42	0xbc8ca50f	-0.01716855
43	0x3d079200	0.03309822
44	0x3b5560d8	0.0032558944
45	0x3c0bfe25	0.0085444795
46	0x3d376a5d	0.04477917
47	0x3e02a09b	0.12756579
48	0xbb0dbcfa	-0.0021627531
49	0x3de3f4c5	0.111306705
50	0xbc3c6162	-0.011497827
51	0x3e1d5c9e	0.15367362
52	0xbceea339	-0.029130565
53	0x3cf1f03e	0.029533502
54	0x3dcd1a76	0.10014813
55	0xbc564db9	-0.013080054
56	0x3e1961c9	0.14978708
57	0x3dde471c	0.10853407
58	0xbcba36a5	-0.022731135
59	0xbcb0a64d	-0.021563673
60	0x3ccf2d64	0.025290199
61	0x3d9058ce	0.07048188
62	0x3c1f0374	0.009705413
63	0x3d414d3b	0.047192793
64	0x3dfd8542	0.123789325
65	0x3d8b5c9a	0.06804772
66	0x3dc68a04	0.09694293
67	0x3dbee125	0.09320287
68	0x3d25c168	0.04046765
69	0x3d2af171	0.041734163
70	0x3e338fa3	0.17535262
71	0x3cfc9561	0.030832948
72	0x3daf017e	0.085452065
73	0x3d27c609	0.040960345
74	0x3b8e8a65	0.004349994
75	0xbd348c9d	-0.04407941
76	0x3dd2e1b5	0.102969564
77	0x3ca1dffd	0.019760126
78	0x3bb569f8	0.005536314
79	0x3db453e1	0.08805061
80	0x3d7b93c0	0.061420202
81	0x3d2c9422	0.042133458
82	0x3dce0d7a	0.10061164
83	0x3e056c31	0.13029553
84	0x3b4260d1	0.0029659758
85	0x3d938847	0.07203727
86	0x3df2fd4e	0.1186472
87	0x3da8e75e	0.08247255
88	0x3c345339	0.01100617
89	0x3e271dcd	0.16319962
90	0x3d88c8a2	0.06678893
91	0x3b9227ad	0.004460296
92	0x3d92bd09	0.07164962
93	0x3e0cc686	0.13747606
94	0x3dfadad2	0.12248768
95	0x3e167941	0.14694692
96	0x3d59e2ab	0.053194683
97	0x3da6167f	0.081097595
98	0x3d311062	0.043228514
99	0x3d024756	0.031806313
100	0x3cae4018	0.021270797
101	0xbc41646c	-0.011803728
102	0x3cea42e9	0.028596358
103	0xbcc5f6ee	-0.024165597
104	0x3da7b100	0.08188057
105	0x3d977cb2	0.073968306
106	0x3e2d6608	0.16933453
107	0x3e1a4077	0.15063654
108	0xbba01738	-0.0048855804
109	0x3afa0f12	0.0019077978
110	0x3e00e2f2	0.12586573
111	0x3d8db531	0.06919325
112	0x3d53b064	0.05168189
113	0x3c22d567	0.009938574
114	0x3dd8f993	0.105944775
115	0x3d094bf8	0.033519715
116	0x3d703d91	0.058652464
117	0x3d5943af	0.053043064
118	0x3db60d4d	0.08889256
119	0x3c83d6d0	0.016093642
120	0x3d62e80f	0.05539709
121	0x3cbeed1a	0.023306418
122	0x3dc40741	0.09571696
123	0x3df7592b	0.12077554
124	0x3cbf3127	0.023338867
125	0x3d732c9e	0.059368722
126	0x3dace9a6	0.084430024
127	0x3d9d4d25	0.0768073
128	0xbdb83a40	-0.08995485
129	0xbe36a02b	-0.17834537
130	0xbe40ca49	-0.18827166
131	0xbe2298ab	-0.1587855
132	0xbda7ccc9	-0.081933565
133	0xbc917282	-0.017754797
134	0xbd8b325b	-0.06796714
135	0xbe525ab2	-0.2054241
136	0xbdba24b3	-0.09089031
137	0xbdd3f5c2	-0.10349609
138	0xbe4e8800	-0.20169067
139	0xbe11fa26	-0.1425558
140	0xbdec9046	-0.115509555
141	0xbd948e10	-0.07253659
142	0xbdebe2cb	-0.11517867
143	0xbe1eba1d	-0.15500684
144	0xbdfb730f	-0.12277805
145	0xbdbd3b6a	-0.09239848
146	0xbe425a2e	-0.18979713
147	0xbe084908	-0.13309109
148	0xbdbfc768	-0.093642056
149	0xbe056bc6	-0.13029394
150	0xbe40d156	-0.18829855
151	0xbe546c8e	-0.20744535
152	0xbe397f6e	-0.18115017
153	0xbe2c2324	-0.1681028
154	0xbc18367e	-0.009290336
155	0xbe259142	-0.16168693
156	0xbe63029a	-0.22168961
157	0xbe0795c8	-0.13240731
158	0xbda06ce7	-0.078332715
159	0xbcee3007	-0.029075636
160	0xbe03e9a8	-0.12882102
161	0xbe370736	-0.17873845
162	0xbdfbc969	-0.12294275
163	0xbe5184f0	-0.20460868
164	0xbe01c8d7	-0.1267427
165	0xbe2f1664	-0.17098385
166	0xbe5711f5	-0.21002944
167	0xbe0d52f2	-0.13801172
168	0xbdce7ab4	-0.100819975
169	0xbd04b88a	-0.032402553
170	0xbe032072	-0.12805346
171	0xbdfcad19	-0.12337703
172	0xbd17d279	-0.037065957
173	0xbdf181bc	-0.11792323
174	0xbcae778d	-0.02129724
175	0xbd9c7cb2	-0.07640971
176	0xbe2c1dc3	-0.16808228
177	0xbe2a0f67	-0.16607438
178	0xbe291a01	-0.16513826
179	0xbe555967	-0.20834886
180	0xbd90527f	-0.07046985
181	0xbdc99a25	-0.09843854
182	0xbe32e62a	-0.17470613
183	0xbe0db314	-0.13837844
184	0xbe0fd6f0	-0.14046836
185	0xbd58fdbd	-0.05297636
186	0xbe205ba0	-0.15659952
187	0xbe0569d8	-0.13028657
188	0xbd5db598	-0.05412826
189	0xbe3d13cd	-0.18464585
190	0xbdd51aa1	-0.1040547
191	0xbcee29e6	-0.029072713
192	0xbe303b9a	-0.17210236
193	0xbde717de	-0.11283849
194	0xbd58bb04	-0.052912727
195	0xbe0f404d	-0.13989373
196	0xbde275eb	-0.11057647
197	0xbd1e166b	-0.0385956
198	0xbe222359	-0.15833797
199	0xbdbfdbba	-0.093680814
200	0xbe134677	-0.14382349
201	0xbd86571d	-0.06559584
202	0xbd65a0d0	-0.056061566
203	0xbe3bcae1	-0.18339111
204	0xbd89c5ee	-0.06727205
205	0xbdd8a794	-0.10578838
206	0x3c10321e	0.008801011
207	0xbd95cf8d	-0.07314978
208	0xbe29c859	-0.16580333
209	0xbe4a0565	-0.1972862
210	0xbe0f8ac6	-0.14017782
211	0xbe089eb8	-0.13341796
212	0x3c580e6a	0.01318703
213	0xbe510ce8	-0.2041508
214	0xbdab3860	-0.08360362
215	0xbe4a2ea5	-0.19744356
216	0xbe58f603	-0.21187596
217	0x3d0405c4	0.03223206
218	0xbe0a7bf4	-0.13523847
219	0xbe5c88bb	-0.21536534
220	0xbe1b3e24	-0.15160424
221	0xbe134b45	-0.14384182
222	0xbe43b141	-0.19110586
223	0xbe421c36	-0.18956074
224	0xbe1e4169	-0.1545464
225	0xbdc76b9d	-0.097373225
226	0xbe23638b	-0.15955941
227	0xbda50d1e	-0.080591425
228	0xbdd057e5	-0.101730146
229	0xbdf61578	-0.120158136
230	0xbd2af5c8	-0.0417383
231	0xbd2fa6ae	-0.042883568
232	0xbdb2edf5	-0.08736793
233	0xbda82515	-0.08210198
234	0xbe2911e0	-0.16510725
235	0xbde91671	-0.113812335
236	0xbd5e1f6a	-0.054229178
237	0xbcbee3d3	-0.023301994
238	0xbe41d56e	-0.18929073
239	0xbdc8d5cb	-0.09806403
240	0xbe0099ff	-0.12558745
241	0xbe304001	-0.17211916
242	0xbdd1fb78	-0.10253042
243	0xbd4941b2	-0.049134918
244	0xbd5f72a0	-0.054552674
245	0xbcea1e83	-0.028579002
246	0xbe40e429	-0.18837036
247	0xbdf60f9e	-0.120146975
248	0xbdb4eebb	-0.08834597
249	0xbe44f6e3	-0.19234805
250	0xbdc41cb4	-0.09575787
251	0xbc8d89fd	-0.017277712
252	0xbc6f86c9	-0.014619538
253	0xbd4c3161	-0.04985178
254	0xbe09aa2e	-0.13443825
255	0xbe2ce520	-0.16884279

fc.weight f4 [38, 128]
0	0xb8f95bec	-0.00011890367
1	0xbdd655c1	-0.10465575
2	0xbd066d7f	-0.032819267
3	0xbe249707	-0.16073237
4	0xbcc9bc83	-0.024626022
5	0x3c875635	0.016520599
6	0xbdd1010f	-0.1020528
7	0x3cffb980	0.031216383
8	0xbe3be79f	-0.18350075
9	0x3e40fb81	0.18845941
10	0xbe4cba2b	-0.19992892
11	0x3ddc245a	0.10749121
12	0x3d22fc59	0.03979144
13	0x3dabb385	0.0838385
14	0xbd9db75a	-0.07700987
15	0xbe06c54c	-0.131612
16	0xbe0eec02	-0.13957217
17	0x3e0b845a	0.13624707
18	0xbe15b738	-0.14620674
19	0x3dd0ec40	0.10201311
20	0x3d853566	0.065043256
21	0x3e27c302	0.16382983
22	0xbdbe2040	-0.09283495
23	0xbd1ab7c7	-0.03777292
24	0xbe323878	-0.17404354
25	0x3e4e321c	0.20136303
26	0xbe0bb56b	-0.13643424
27	0x3bd0a47e	0.0063672652
28	0x3e2628b3	0.16226463
29	0x3daac4cd	0.08338318
30	0xbc98cfbc	-0.018653743
31	0x3cf44323	0.02981717
32	0xbc7d747a	-0.015469665
33	0x3d57547d	0.05257081
34	0x3e679ba8	0.22617972
35	0x3e10f33f	0.14155291
36	0x3ddc1ce7	0.107477
37	0xbe43bfed	-0.19116183
38	0xbdd91e24	-0.10601452
39	0x3e220000	0.15820312
40	0xba0a3e1d	-0.0005273538
41	0xbe09e967	-0.13467942
42	0xbdaab9c7	-0.083362155
43	0xbe6b8cec	-0.23002976
44	0x3e391681	0.18074991
45	0x3e3d66d8	0.18496263
46	0x3d674e6e	0.05647128
47	0x3c85aca0	0.016317666
48	0x3e003315	0.12519486
49	0x3e16604a	0.14685169
50	0xbd51e867	-0.051247027
51	0xbdd328ed	-0.1031054
52	0xbe23f619	-0.16011848
53	0xbd02e844	-0.031959787
54	0x3e31dfa6	0.17370471
55	0x3e4c87d8	0.19973695
56	0xbe5175b9	-0.20455064
57	0xbe478711	-0.19485117
58	0xbe14e546	-0.14540586
59	0x3e4b221c	0.1983723
60	0xbe04148c	-0.12898463
61	0x3d1e4259	0.038637493
62	0xbd033652	-0.032034226
63	0x3da60dd2	0.08108105
64	0xbdfc5db2	-0.123225585
65	0x3e516b99	0.20451201
66	0xbe317b4d	-0.17332192
67	0xbba9327f	-0.0051634903
68	0xbdd9e96a	-0.10640223
69	0x3e0cdd5c	0.13756317
70	0x3e1e86cf	0.15481113
71	0xbe21b1de	-0.15790507
72	0xbe3d6277	-0.18494593
73	0x3e25ebfa	0.16203299
74	0xbd3a5549	-0.04549149
75	0x3de48ec4	0.11160043
76	0x3df956d6	0.12174766
77	0xbdf0cbb9	-0.11757607
78	0x3d3c4b9c	0.045970544
79	0x3e336d08	0.17522061
80	0xbe4bf6cf	-0.19918369
81	0xbc83a75f	-0.01607102
82	0x3d6e8c52	0.05823929
83	0x3db67dc6	0.08910708
84	0x3da66204	0.08124164
85	0x3d16f73f	0.036856886
86	0xbdf2ef6a	-0.11862071
87	0xbe48670f	-0.19570564
88	0x3e0fde1b	0.1404957
89	0xbde99bd0	-0.11406672
90	0x3db593f5	0.08866111
91	0xbe0b974e	-0.13631937
92	0xbc9454fa	-0.018106926
93	0x3d6375db	0.055532318
94	0xbd8baf3d	-0.068205334
95	0xbe5065cf	-0.20351337
96	0xbe087447	-0.13325606
97	0xbe29eabb	-0.16593449
98	0x3e373190	0.1789
99	0x3e41dd9d	0.18932195
100	0xbce9b429	-0.02852829
101	0xbe63558e	-0.22200605
102	0x3e1b7050	0.15179563
103	0x3e49542f	0.1966102
104	0xbcc75142	-0.024330739
105	0xbd2310dd	-0.039811004
106	0xbd907c37	-0.07054942
107	0x3deb4cd2	0.11489262
108	0x3e55356a	0.20821157
109	0x3e00a629	0.12563385
110	0xbd822b73	-0.063559435
111	0x3d2f3d0e	0.042782836
112	0xbc078701	-0.0082719335
113	0xbdf677ce	-0.1203457
114	0x3cb9e121	0.022690358
115	0x3c8ba5c2	0.017046813
116	0x3d48610e	0.048920684
117	0xbe4a520a	-0.19757858
118	0xbe51c146	-0.20483884
119	0x3e407b94	0.18797141
120	0xbe4656c4	-0.19369036
121	0xbdec7c77	-0.11547177
122	0xbe3bad2e	-0.18327782
123	0xbe676fb0	-0.22601199
124	0xbb2f4e21	-0.002674945
125	0x3c89d6ee	0.01682612
126	0x3e130db3	0.14360695
127	0xbdb895c9	-0.09012944
128	0x3e2e63d1	0.17030264
129	0xbe58ae89	-0.2116033
130	0xbe2405b9	-0.16017808
131	0x3e2a3b79	0.1662425
132	0xbdef98b5	-0.116990484
133	0xbdf0f333	-0.117651366
134	0x3d8782d1	0.06616748
135	0xbe0bc09f	-0.13647698
136	0xbe5b284d	-0.21402092
137	0x3d204a91	0.039133612
138	0x3d528637	0.05139753
139	0xbe022762	-0.12710336
140	0xbe325516	-0.1741527
141	0x3e917232	0.28407437
142	0xbe5d6a64	-0.21622616
143	0xbe17a0d9	-0.14807452
144	0xbd9ac133	-0.07556381
145	0x3d95def1	0.07317913
146	0x3d6ff84b	0.0585864
147	0xbdf0ec65	-0.11763839
148	0xbe4e44b1	-0.20143391
149	0x3e03d8f7	0.12875734
150	0xbc352690	-0.011056557
151	0x3c0463de	0.008080451
152	0xbd3e2207	-0.04641917
153	0x3e178621	0.1479726
154	0xbe49b418	-0.19697607
155	0x3dbb3c44	0.09142354
156	0xbe2de648	-0.16982377
157	0x3dfdf8be	0.124009594
158	0x3e266424	0.16249138
159	0xbd4daf6e	-0.05021613
160	0x3e083088	0.13299763
161	0xbd823fc9	-0.06359822
162	0xbc39aef2	-0.011333214
163	0xbe112d4a	-0.14177433
164	0x3e2cc225	0.16870935
165	0xbd97f5c4	-0.07419923
166	0xbe2702b5	-0.16309626
167	0xbe60bbd8	-0.21946657
168	0xbdfee79a	-0.12446518
169	0xbc5a5c02	-0.0133276
170	0xbdc053ec	-0.09391007
171	0x3e30c7ad	0.1726367
172	0x3e0e242a	0.13880983
173	0x3ce80562	0.02832288
174	0xbddcf6e4	-0.10789278
175	0xbe48445a	-0.19557324
176	0xbc41db11	-0.011832015
177	0x3de1a8eb	0.11018547
178	0xbd85459d	-0.06507418
179	0xbe1081c6	-0.14112005
180	0x3e0c5898	0.13705671
181	0xbe7fe060	-0.24987936
182	0xbe186a26	-0.14884242
183	0xbe337e85	-0.17528732
184	0xbe603d3e	-0.21898362
185	0x3e4ceda7	0.20012532
186	0xbe0ef107	-0.13959132
187	0xbdc11bb1	-0.0942911
188	0xbd484e49	-0.048902784
189	0xbe20f274	-0.15717489
190	0xbda45ca1	-0.0802548
191	0xbd9d501c	-0.07681295
192	0xbd911db6	-0.07085745
193	0x3e496d06	0.19670495
194	0x3e247ead	0.16063948
195	0x3d60d130	0.054886997
196	0xbe0f1adb	-0.13975088
197	0xbe12e133	-0.14343719
198	0x3cf5de73	0.030013299
199	0xbe371ae2	-0.17881349
200	0xbdddc0bd	-0.108277775
201	0x3e2909d2	0.16507652
202	0x3d8f701f	0.07003807
203	0x3e631627	0.22176419
204	0xbe364397	-0.17799221
205	0xbe59edc3	-0.21282105
206	0xbdbf4c94	-0.09340778
207	0xbddaf13d	-0.10690544
208	0x3e01d1e0	0.12677717
209	0x3dbb98aa	0.09159978
210	0xbd189520	-0.03725159
211	0xbe3e0ca2	-0.18559507
212	0xbde13a91	-0.10997499
213	0x3dea913e	0.11453484
214	0xbd9d59c3	-0.07683136
215	0x3e3194f7	0.17341982
216	0xbe483ead	-0.19555159
217	0xbe2189b4	-0.15775186
218	0x3d48cf09	0.04902557
219	0xbd1dc261	-0.038515452
220	0xbdfe4bec	-0.12416825
221	0xbcb19ac3	-0.021680241
222	0x3dfb53f8	0.12271875
223	0x3c9089ac	0.017643772
224	0xbe5f165a	-0.2178587
225	0x3e1ca100	0.15295792
226	0xbb8519f5	-0.004061932
227	0x3e4b6a51	0.19864775
228	0x3da1ebaf	0.07906281
229	0xbd7006c5	-0.058600206
230	0x3e22f5ea	0.15914121
231	0xbdb9c66a	-0.090710476
232	0x3e313082	0.1730366
233	0xbdc4ac5c	-0.096031874
234	0xbe4859dc	-0.19565529
235	0x3e434c16	0.19071993
236	0xbe4a4b62	-0.19755319
237	0xbe3aae44	-0.1823054
238	0xbe071741	-0.13192464
239	0x3dbd65e1	0.092479475
240	0x3e641cca	0.22276607
241	0xbe3824c2	-0.17982772
242	0x3d439239	0.04774687
243	0xbc9ab14f	-0.018883375
244	0x3e0c2d9c	0.13689274
245	0xbdb1d9e6	-0.08684139
246	0x3dddf601	0.10837937
247	0x3e66ebd6	0.22550902
248	0xbe4529ef	-0.19254278
249	0xbe16949b	-0.14705126
250	0xbe47ca85	-0.19510849
251	0xbe1f5600	-0.1556015
252	0x3e5c83cd	0.21534653
253	0xbd267fc7	-0.0406492
254	0x3d4b68f6	0.049660645
255	0x3dad9cc4	0.08477166

fc.bias f4 [38]
0	0x3d575cb0	0.052578628
1	0xbc1f0eb5	-0.009708096
2	0xbd991739	-0.074751325
3	0xbd7327c2	-0.059364088
4	0xbc1de542	-0.009637179
5	0xbd15e687	-0.0365968
6	0xbd29d78a	-0.04146532
7	0x3c72dcd2	0.0148231555
8	0xbc6109c6	-0.01373524
9	0xbd8e96dc	-0.06962368
10	0xbdec235d	-0.115301825
11	0xbdc7b7ab	-0.09751829
12	0x3d060872	0.032722898
13	0xb9185366	-0.00014526918
14	0xbca19a18	-0.019726798
15	0xbdba7a96	-0.09105413
16	0x3d9e05b3	0.07715931
17	0x3c189af2	0.009314286
18	0xbcab1664	-0.0208847
19	0xbdd599b8	-0.1042971
20	0xbc09b6f7	-0.008405439
21	0xbd1b054a	-0.03784684
22	0xbc16120e	-0.009159578
23	0x3d46497e	0.04840993
24	0xba8305ea	-0.0009996269
25	0xbc3d7d38	-0.011565499
26	0xbc3f5c03	-0.011679652
27	0xbd54eb49	-0.051982198
28	0xbd335f74	-0.043792203
29	0xbaa80e08	-0.0012821564
30	0xbd435adf	-0.047694083
31	0x3ddbe2e0	0.10736632
32	0x3d2ea2d9	0.042635772
33	0x3d18f9d2	0.037347622
34	0x3d2982c1	0.041384462
35	0x3ca36021	0.019943299
36	0xbde168f4	-0.11006346
37	0xbc940a7d	-0.018071407
